…
height":598},"executionInfo":{"status":"ok","timestamp":1593709838239,"user_tz":-330,"elapsed":682600,"user":{"displayName":"Akshay Mohite","photoUrl":"","userId":"08018382541870093998"}},"outputId":"17e39095-1330-4a32-82c4-efcd1ff51acb"},"source":["model.summary()"],"execution_count":53,"outputs":[{"output_type":"stream","text":["Model: \"sequential_5\"\n","_________________________________________________________________\n","Layer (type)                 Output Shape              Param #   \n","=================================================================\n","conv2d_17 (Conv2D)           (None, 32, 32, 50)        1400      \n","_________________________________________________________________\n","max_pooling2d_9 (MaxPooling2 (None, 16, 16, 50)        0         \n","_________________________________________________________________\n","conv2d_18 (Conv2D)           (None, 16, 16, 60)        27060     \n","_________________________________________________________________\n","max_pooling2d_10 (MaxPooling (None, 8, 8, 60)          0         \n","_________________________________________________________________\n","conv2d_19 (Conv2D)           (None, 8, 8, 80)          43280     \n","_________________________________________________________________\n","max_pooling2d_11 (MaxPooling (None, 4, 4, 80)          0         \n","_________________________________________________________________\n","flatten_4 (Flatten)          (None, 1280)              0         \n","_________________________________________________________________\n","dense_10 (Dense)             (None, 1024)              1311744   \n","_________________________________________________________________\n","dropout_11 (Dropout)         (None, 1024)              0         \n","_________________________________________________________________\n","dense_11 (Dense)             (None, 200)               205000    \n","_________________________________________________________________\n","dropout_12 (Dropout)         (None, 200)               0         \n","_________________________________________________________________\n","dense_12 (Dense)             (None, 10)                2010      \n","=================================================================\n","Total params: 1,590,494\n","Trainable params: 1,590,494\n","Non-trainable params: 0\n","_________________________________________________________________\n"],"name":"stdout"}]},{"cell_type":"code","metadata":{"id":"9RJVYJvuZ4Eg","colab_type":"code","colab":{},"executionInfo":{"status":"ok","timestamp":1593709848208,"u
…
